…
er cifar\nI20260529 21:49:38.726040  8455 db_lmdb.cpp:35] Opened lmdb examples/cifar10/cifar10_train_lmdb\nI20260529 21:49:38.726066  8455 net.cpp:84] Creating Layer cifar\nI20260529 21:49:38.726075  8455 net.cpp:380] cifar -> data\nI20260529 21:49:38.726106  8455 net.cpp:380] cifar -> label\nI20260529 21:49:38.726122  8455 data_transformer.cpp:25] Loading mean file from: examples/cifar10/mean.binaryproto\nI20260529 21:49:38.726197  8455 data_layer.cpp:45] output data size: 100,3,32,32\nI20260529 21:49:38.726341  8455 net.cpp:122] Setting up cifar\nI20260529 21:49:38.726353  8455 net.cpp:129] Top shape: 100 3 32 32 (307200)\nI20260529 21:49:38.726361  8455 net.cpp:129] Top shape: 100 (100)\nI20260529 21:49:38.726368  8455 net.cpp:137] Memory required for data: 1229200\nI20260529 21:49:38.726377  8455 layer_factory.hpp:77] Creating layer conv1\nI20260529 21:49:38.726390  8455 net.cpp:84] Creating Layer conv1\nI20260529 21:49:38.726398  8455 net.cpp:406] conv1 <- data\nI20260529 21:49:38.726408  8455 net.cpp:380] conv1 -> conv1\nI20260529 21:49:38.726459  8455 net.cpp:122] Setting up conv1\nI20260529 21:49:38.726466  8455 net.cpp:129] Top shape: 100 32 32 32 (3276800)\nI20260529 21:49:38.726473  8455 net.cpp:137] Memory required for data: 14336400\nI20260529 21:49:38.726485  8455 layer_factory.hpp:77] Creating layer pool1\nI20260529 21:49:38.726495  8455 net.cpp:84] Creating Layer pool1\nI20260529 21:49:38.726502  8455 net.cpp:406] pool1 <- conv1\nI20260529 21:49:38.726511  8455 net.cpp:380] pool1 -> pool1\nI20260529 21:49:38.726522  8455 net.cpp:122] Setting up pool1\nI20260529 21:49:38.726531  8455 net.cpp:129] Top shape: 100 32 16 16 (819200)\nI20260529 21:49:38.726538  8455 net.cpp:137] Memory required for data: 17613200\nI20260529 21:49:38.726545  8455 layer_factory.hpp:77] Creating layer relu1\nI20260529 21:49:38.726553  8455 net.cpp:84] Creating Layer relu1\nI20260529 21:49:38.726562  8455 net.cpp:406] relu1 <- pool1\nI20260529 21:49:38.726569  8455 net.cpp:367] relu1 -> pool1 (in-place)\nI20260529 21:49:38.726578  8455 net.cpp:122] Setting up relu1\nI20260529 21:49:38.726585  8455 net.cpp:129] Top shape: 100 32 16 16 (819200)\nI20260529 21:49:38.726593  8455 net.cpp:137] Memory required for data: 20890000\nI20260529 21:49:38.726601  8455 layer_factory.hpp:77] Creating layer conv2\nI20260529 21:49:38.726610  8455 net.cpp:84] Creating Layer conv2\nI20260529 21:49:38.726616  8455 net.cpp:406] conv2 <- pool1\nI20260529 21:49:38.726625  8455 net.cpp:380] conv2 -> conv2\nI20260529 21:49:38.726809  8455 net.cpp:122] Setting up conv2\nI20260529 21:49:38.726819  8455 net.cpp:129] Top shape: 100 32 16 16 (819200)\nI20260529 21:49:38.726827  8455 net.cpp:137] Memory required for data: 24166800\nI20260529 21:49:38.726836  8455 layer_factory.hpp:77] Creating layer relu2\nI20260529 21:49:38.726845  8455 net.cpp:84] Creating Layer relu2\nI20260529 21:49:38.726852  8455 net.cpp:406] relu2 <- conv2\nI20260529 21:49:38.726861  8455 net.cpp:367] relu2 -> conv2 (in-place)\nI20260529 21:49:38.726869  8455 net.cpp:122] Setting up relu2\nI20260529 21:49:38.726877  8455 net.cpp:129] Top shape: 100 32 16 16 (819200)\nI20260529 21:49:38.726886  8455 net.cpp:137] Memory required for data: 27443600\nI20260529 21:49:38.726893  8455 layer_factory.hpp:77] Creating layer pool2\nI20260529 21:49:38.726902  8455 net.cpp:84] Creating Layer pool2\nI20260529 21:49:38.726908  8455 net.cpp:406] pool2 <- conv2\nI20260529 21:49:38.726917  8455 net.cpp:380] pool2 -> pool2\nI20260529 21:49:38.726925  8455 net.cpp:122] Setting up pool2\nI20260529 21:49:38.726934  8455 net.cpp:129] Top shape: 100 32 8 8 (204800)\nI20260529 21:49:38.726941  8455 net.cpp:137] Memory required for data: 28262800\nI20260529 21:49:38.726949  8455 layer_factory.hpp:77] Creating layer conv3\nI20260529 21:49:38.726959  8455 net.cpp:84] Creating Layer conv3\nI20260529 21:49:38.726966  8455 net.cpp:406] conv3 <- pool2\nI20260529 21:49:38.726975  8455 net.cpp:380] conv3 -> conv3\nI20260529 21:49:38.727265  8455 net.cpp:122] Setting up conv3\nI20260529 21:49:38.727272  8455 net.cpp:129] Top shape: 100 64 8 8 (409600)\nI20260529 21:49:38.727281  8455 net.cpp:137] Memory required for data: 29901200\nI20260529 21:49:38.727289  8455 layer_factory.hpp:77] Creating layer relu3\nI20260529 21:49:38.727298  8455 net.cpp:84] Creating Layer relu3\nI20260529 21:49:38.727306  8455 net.cpp:406] relu3 <- conv3\nI20260529 21:49:38.727314  8455 net.cpp:367] relu3 -> conv3 (in-place)\nI20260529 21:49:38.727324  8455 net.cpp:122] Setting up relu\n... 11786 bytes truncated ...\n29722  8455 net.cpp:122] Setting up relu3\nI20260529 21:49:38.729729  8455 net.cpp:129] Top shape: 100 64 8 8 (409600)\nI20260529 21:49:38.729737  8455 net.cpp:137] Memory required for data: 31540400\nI20260529 21:49:38.729745  8455 layer_factory.hpp:77] Creating layer pool3\nI20260529 21:49:38.729753  8455 net.cpp:84] Creating Layer pool3\nI20260529 21:49:38.729761  8455 net.cpp:406] pool3 <- conv3\nI20260529 21:49:38.729770  8455 net.cpp:380] pool3 -> pool3\nI20260529 21:49:38.729779  8455 net.cpp:122] Setting up pool3\nI20260529 21:49:38.729787  8455 net.cpp:129] Top shape: 100 64 4 4 (102400)\nI20260529 21:49:38.729808  8455 net.cpp:137] Memory required for data: 31950000\nI20260529 21:49:38.729817  8455 layer_factory.hpp:77] Creating layer ip1\nI20260529 21:49:38.729826  8455 net.cpp:84] Creating Layer ip1\nI20260529 21:49:38.729835  8455 net.cpp:406] ip1 <- pool3\nI20260529 21:49:38.729843  8455 net.cpp:380] ip1 -> ip1\nI20260529 21:49:38.730235  8455 net.cpp:122] Setting up ip1\nI20260529 21:49:38.730243  8455 net.cpp:129] Top shape: 100 64 (6400)\nI20260529 21:49:38.730250  8455 net.cpp:137] Memory required for data: 31975600\nI20260529 21:49:38.730259  8455 layer_factory.hpp:77] Creating layer ip2\nI20260529 21:49:38.730268  8455 net.cpp:84] Creating Layer ip2\nI20260529 21:49:38.730274  8455 net.cpp:406] ip2 <- ip1\nI20260529 21:49:38.730285  8455 net.cpp:380] ip2 -> ip2\nI20260529 21:49:38.730300  8455 net.cpp:122] Setting up ip2\nI20260529 21:49:38.730309  8455 net.cpp:129] Top shape: 100 10 (1000)\nI20260529 21:49:38.730315  8455 net.cpp:137] Memory required for data: 31979600\nI20260529 21:49:38.730324  8455 layer_factory.hpp:77] Creating layer ip2_ip2_0_split\nI20260529 21:49:38.730333  8455 net.cpp:84] Creating Layer ip2_ip2_0_split\nI20260529 21:49:38.730341  8455 net.cpp:406] ip2_ip2_0_split <- ip2\nI20260529 21:49:38.730348  8455 net.cpp:380] ip2_ip2_0_split -> ip2_ip2_0_split_0\nI20260529 21:49:38.730356  8455 net.cpp:380] ip2_ip2_0_split -> ip2_ip2_0_split_1\nI20260529 21:49:38.730365  8455 net.cpp:122] Setting up ip2_ip2_0_split\nI20260529 21:49:38.730373  8455 net.cpp:129] Top shape: 100 10 (1000)\nI20260529 21:49:38.730381  8455 net.cpp:129] Top shape: 100 10 (1000)\nI20260529 21:49:38.730388  8455 net.cpp:137] Memory required for data: 31987600\nI20260529 21:49:38.730396  8455 layer_factory.hpp:77] Creating layer accuracy\nI20260529 21:49:38.730407  8455 net.cpp:84] Creating Layer accuracy\nI20260529 21:49:38.730415  8455 net.cpp:406] accuracy <- ip2_ip2_0_split_0\nI20260529 21:49:38.730423  8455 net.cpp:406] accuracy <- label_cifar_1_split_0\nI
…
